a4/behavioral_cloning_CartPole-v0.pt (torch_old, 1132 bytes, 4 tensors)

model.0.weight f4 [10, 4]
-0.06826061 -0.43905807 0.23456079 0.044278324 1.3101267 -1.9079369 -2.1408446 -5.242031
-0.009979069 -0.38875622 -0.036781132 0.010649741 1.2204779 -1.9739255 -1.893813 -4.6564527
0.2753709 -0.4918505 0.35065728 -0.17699575 1.2066925 -1.714034 -2.098892 -4.592648
-1.5397954 1.5874716 2.3959615 5.186959 0.009297948 -1.761597 -2.006428 -6.798202
-1.1072143 1.8171914 2.4755268 5.3099375 1.4420457 -1.7973487 -1.8459077 -4.7005773
00000000: 38cc 8bbd 38cc e0be b430 703e 305d 353d
00000010: 3bb2 a73f 4737 f4bf 9903 09c0 b8be a7c0
00000020: 407f 23bc 0e0b c7be d0a7 16bd 407c 2e3c
00000030: 9f38 9c3f 97a9 fcbf 7768 f2bf a901 95c0
00000040: 6afd 8c3e d4d3 fbbe 5a89 b33e 603e 35be
00000050: e674 9a3f 7765 dbbf 3f54 06c0 f9f6 92c0
00000060: 0418 c5bf 4532 cb3f 6f57 1940 91fb a540
00000070: 6c56 183c 037c e1bf 5169 00c0 df8a d9c0
00000080: 33b9 8dbf ba99 e83f 086f 1e40 02eb a940
00000090: f494 b83f 860f e6bf b446 ecbf 216b 96c0

model.0.bias f4 [10]
-0.49144047 0.35026103 -0.2884773 0.39163473 -0.264642 0.30842933 1.2338612 0.88011533
1.1783196 0.34932595
00000000: 169e fbbe 6a55 b33e 4cb3 93be 5984 c83e
00000010: 287f 87be 73ea 9d3e 2aef 9d3f 3d4f 613f
00000020: 2dd3 963f dada b23e

model.2.weight f4 [2, 10]
-0.12072839 10.881376 -0.02169913 12.41658 -0.21200901 11.932004 -3.5850148 8.784541
-2.4339986 9.361249 0.08271396 -10.770943 0.086740136 -12.5231695 0.13452944 -12.04882
3.7774057 -9.107576 2.9525373 -9.340106
00000000: 7240 f7bd 1e1a 2e41 60c2 b1bc 50aa 4641
00000010: e418 59be 7de9 3e41 e270 65c0 7b8d 0c41
00000020: a2c6 1bc0 adc7 1541 f065 a93d c855 2cc1
00000030: d0a4 b13d e75e 48c1 16c2 093e f7c7 40c1
00000040: 04c1 7140 a2b8 11c1 5ff6 3c40 1371 15c1

model.2.bias f4 [2]
-0.95321524 0.5882346
00000000: ea05 74bf 8b96 163f
