a4/behavioral_cloning_CartPole-v0.pt (torch_old, 1100 bytes, 4 tensors)

model.0.weight f4 [10, 4]
000000 f2 1e c3 bf 51 47 14 40 eb 93 16 40 9b a0 aa 40
       -1.5243819 2.3168528 2.3527782 5.332105
000010 35 6c be bf d7 94 ff 3f 3d 19 28 40 a4 c0 a9 40
       -1.4876772 1.9967297 2.6265404 5.3047657
000020 0e fe a1 bf e1 ed fd 3f 66 d5 12 40 6f 91 ae 40
       -1.2655656 1.983822 2.2942748 5.455253
000030 08 25 c1 3f 7b 73 bb bf 79 bd d0 bf 89 72 9b c0
       1.5089426 -1.4644617 -1.6307822 -4.8577313
000040 60 29 40 3e aa b9 c0 be 14 3f 05 be 76 8b 99 be
       0.18765783 -0.3764165 -0.13012344 -0.29989213
000050 c8 9a 74 be 99 47 ce bd 4d a2 00 3f c7 69 ba bd
       -0.2388717 -0.1007225 0.5024765 -0.09102207
000060 30 21 49 be 10 8d 34 3e 20 26 fd bd 52 fc e3 be
       -0.19641566 0.17631936 -0.123607874 -0.44528443
000070 b5 26 28 3e 12 30 13 c0 b0 f4 13 c0 45 15 06 c1
       0.16421016 -2.299809 -2.3118095 -8.380193
000080 9e bf 99 bf 7d 41 c1 3f 42 1d 1f 40 6c 24 9d 40
       -1.2011602 1.509811 2.4861608 4.910696
000090 74 18 ab bf 75 39 e9 3f fd c6 f7 3f e5 36 a1 40
       -1.3366838 1.822066 1.9357601 5.037951

model.0.bias f4 [10]
000000 16 9a 00 be 0c d7 af 3c 7b 03 0f be a3 1e 93 3f
       -0.12558779 0.021464847 -0.13966171 1.1493725
000010 90 74 ac bd be 5c 64 be 64 04 bd be 56 b0 87 3f
       -0.0842067 -0.22301003 -0.36917412 1.0600688
000020 48 96 10 3e 06 95 94 3c
       0.14119828 0.018137466

model.2.weight f4 [2, 10]
000000 41 66 59 c1 82 43 0c c1 04 4a 01 c1 f3 e7 69 40
       -13.587464 -8.766481 -8.08057 3.654782
000010 b0 9a 34 3d f5 d6 a0 3c 9a bc 2b 3e ab 0e 05 41
       0.044092834 0.01963375 0.16771165 8.316081
000020 2e 42 a5 c0 2e 30 f7 c0 1c 51 55 41 e6 dc 03 41
       -5.1643286 -7.7246313 13.332302 8.24143
000030 4c 33 02 41 6e 24 5d c0 0f 6e 82 be 9c b9 91 3d
       8.137524 -3.4553485 -0.25474593 0.0711548
000040 a1 d9 1d be f3 ae 07 c1 d9 b2 97 40 cc 63 00 41
       -0.1541505 -8.480212 4.740582 8.024364

model.2.bias f4 [2]
000000 4f e7 0b 3f f8 40 65 bf
       0.54649824 -0.8955226
