a4/behavioral_cloning_CartPole-v0.pt (torch_old, 1092 bytes, 4 tensors)

model.0.weight f4 [10, 4]
1.3654118 -1.0803823 -0.8738974 -3.1919503 -0.291689 -0.44353184 0.957404 1.5165017
0.80962306 -1.2304507 -1.0659907 -3.263352 -0.16630585 0.16973884 -0.019345008 -0.11544033
-0.4614691 1.4698752 1.376566 3.9530156 0.7133435 -1.1413013 -0.99563473 -3.6345823
-0.528714 1.2606989 1.2235924 3.3842409 0.83412147 -1.2956337 -1.1885488 -3.217622
0.63404447 -0.88226414 -1.590336 -3.1900947 -0.009442223 0.11243436 0.3989469 0.29841924
00000000: d0c5 ae3f f849 8abf bdb7 5fbf ea48 4cc0
00000010: 4358 95be 9b16 e3be 6e18 753f ba1c c23f
00000020: 7543 4f3f 697f 9dbf 6272 88bf c2da 50c0
00000030: 154c 2abe 05d0 2d3e 6c79 9ebc fb6b ecbd
00000040: ae45 ecbe df24 bc3f 5133 b03f 35fe 7c40
00000050: ae9d 363f 2916 92bf ebe1 7ebf ff9c 68c0
00000060: cd59 07bf 955e a13f ad9e 9c3f 6797 5840
00000070: fc88 553f 53d7 a5bf 5e22 98bf 85ed 4dc0
00000080: bd50 223f 10dc 61bf 2190 cbbf 832a 4cc0
00000090: 8eb3 1abc fc43 e63d c542 cc3e 68ca 983e

model.0.bias f4 [10]
0.24297343 -0.27376488 0.32124665 -0.1337312 0.43901652 0.39727777 0.41285193 0.329928
0.31478372 -0.29318056
00000000: 07ce 783e e92a 8cbe 717a a43e d5f0 08be
00000010: c6c6 e03e fe67 cb3e 5461 d33e 53ec a83e
00000020: 552b a13e c31b 96be

model.2.weight f4 [2, 10]
2.9825408 -1.046442 4.3420897 -0.05045776 -2.5960238 3.7763264 -2.1810458 4.5902963
2.6889706 0.07168876 -3.0378828 1.2240638 -4.594321 0.06321986 2.3214788 -3.2362263
2.0607135 -4.6727386 -2.739074 -0.08464778
00000000: f3e1 3e40 d0f1 85bf 66f2 8a40 ccac 4ebd
00000010: 4125 26c0 55af 7140 4196 0bc0 b5e3 9240
00000020: 1818 2c40 8ed1 923d ac6c 42c0 1fae 9c3f
00000030: ad04 93c0 6a79 813d 1c93 1440 551e 4fc0
00000040: bbe2 0340 1387 95c0 fd4c 2fc0 d15b adbd

model.2.bias f4 [2]
-0.32168514 0.4679442
00000000: eab3 a4be 6296 ef3e
