a4/best_model_CartPole-v0.pt (torch_old, 1132 bytes, 4 tensors)

model.0.weight f4 [10, 4]
00000000: c758 98bf 7d49 0040 c479 5140 b3a0 e13f
00000010: 7c08 f2bf 0fe5 0b40 9ee9 5340 0d99 9b3f
00000020: 68e1 e2be 542c 3d3f 19af 853f ed4e 1c3f
00000030: f85b 0c40 724b dabf 8ab9 52c0 e493 a5bf
00000040: fef5 a3bf 9bcc d23f 9a06 d73f 30c0 873f
00000050: c408 41bf 902e 113f c221 703f 6e9e 3b3d
00000060: 4361 c73f 7575 acbf 209d 3cc0 c906 8abf
00000070: c676 2ec0 b2e5 8840 0cea a640 94fd 993f
00000080: 1921 53bf b440 923f c827 593f b7e0 e33e
00000090: b4d5 d63e 011c 9fbf fb09 91bf a4a0 0fc0
-1.1902093 2.0044854 3.273057 1.7627167 -1.8908839 2.1858556 3.3111339 1.2156082
-0.44312596 0.73895764 1.044406 0.6105793 2.1931133 -1.7054274 -3.2925744 -1.2935758
-1.2809446 1.6468691 1.679889 1.0605526 -0.75404 0.56711674 0.9380151 0.045805387
1.5576557 -1.3473345 -2.9470901 -1.0783321 -2.7259994 4.278039 5.21607 1.2030511
-0.8247238 1.1425996 0.84826326 0.4450738 0.41959918 -1.2430421 -1.1331171 -2.2441797

model.0.bias f4 [10]
00000000: 98e7 57c0 895d 0dc0 9e6d b4bf 8eff 0b3f
00000010: 2a56 e7bf 769c 67be 5744 b63f 5451 a0c0
00000020: 780b 5ebe eb32 26c0
-3.3735104 -2.208834 -1.4095953 0.5468682 -1.807317 -0.22618279 1.4239606 -5.0099277
-0.21684062 -2.5968578

model.2.weight f4 [2, 10]
00000000: 164f d73f bdac e83f 6252 9d3f eff5 963f
00000010: 8507 b83f cee2 3dbd 63dc 9dbf ddee c63f
00000020: 14cc 0fbf 0c70 a53f 1869 ab3f 0e39 e03f
00000030: 3301 e93e 60cb 2b3f e898 a13f 84de fabe
00000040: 9b6d 29bf 36d7 bb3f b59d ebbe 23ca 0c40
1.682101 1.8177716 1.2290766 1.1793803 1.4377295 -0.046358876 -1.2332882 1.5541645
-0.56170774 1.2924819 1.3391447 1.7517412 0.45508727 0.671072 1.2624788 -0.4899789
-0.6618287 1.4675052 -0.46018758 2.1998374

model.2.bias f4 [2]
00000000: 3586 0640 edbf ca3f
2.1019413 1.5839821
