a4/best_model_CartPole-v0.pt (torch_old, 1092 bytes, 4 tensors)

model.0.weight f4 [10, 4]
00000000: 976f 7d3e 20f6 a83e 4fcd 8b3e 1001 093e
00000010: 7615 de3d d1be f63f 51db 423f 2f37 183f
00000020: cff8 66bd 8d68 52bf c888 9abf 44a2 03c0
00000030: d422 4e3e 337b 0d40 d7e7 aa3f 52a3 403f
00000040: d3fe 8e3d 7430 d0bf a7f3 bbbf 5ad3 11c0
00000050: 0a1f 443e d245 7dbf 94b6 c0bf 6080 1cc0
00000060: ea05 ccbe de96 273f 8194 403f a136 113f
00000070: 8651 bebd 9a31 ad3f 11f9 5b3f b6bd a53e
00000080: baf1 d83e 175b 903f 3545 773f bd7b 843e
00000090: 43d8 c2bd c0b9 573f 1d7d 4f3f 8fe6 2c3f
0.247496 0.33000278 0.27305076 0.13379312 0.10843937 1.9276983 0.761159 0.59459203
-0.056389626 -0.8219078 -1.2072992 -2.056779 0.20130473 2.2106445 1.3352002 0.7524921
0.069821976 -1.6264787 -1.4683732 -2.2785249 0.19152465 -0.9893466 -1.5055718 -2.4453354
-0.39848262 0.6546458 0.752266 0.5672398 -0.09292893 1.3530762 0.8592692 0.323713
0.42371923 1.1277798 0.96589977 0.25875655 -0.09513905 0.84267807 0.8105028 0.67539304

model.0.bias f4 [10]
00000000: 8de8 4abd e5d6 4e40 8da8 4b3f 3c64 1340
00000010: a229 093f ae2b 46be ff21 e23f d1cb 5740
00000020: 7606 1540 f5dc 0a40
-0.049538184 3.2318661 0.79554063 2.3029928 0.5357915 -0.193526 1.7666625 3.371815
2.3285193 2.1697361

model.2.weight f4 [2, 10]
00000000: dc7a c03b 9eee 2140 6bf1 9dbf 4526 3340
00000010: 75b3 e8bf 7169 14c0 b475 993f 5983 2c40
00000020: f48f f83f 8e9d b03f 9c29 d63d e711 3940
00000030: 6822 14c0 732f 0640 9588 27c0 4c31 f5bf
00000040: 4bda da3f 2fd2 2140 b78f f23f cf67 0540
0.005874021 2.530189 -1.23393 2.7992108 -1.8179766 -2.3189356 1.1989045 2.6955168
1.9418931 1.3798082 0.10457155 2.8917177 -2.3146 2.096646 -2.6177113 -1.9155669
1.7097868 2.5284536 1.8950108 2.084461

model.2.bias f4 [2]
00000000: 46b1 d23f ad55 c93f
1.646035 1.5729271
