project/models/bc.all3Replays.pt (torch_old, 7975 bytes, 14 tensors)

model.0.weight f4 [32, 29]
-0.12588972 0.08136035 -0.063031174 0.13601881 -0.1450461 -0.011145576 -0.15104005 0.06634983
-0.09241033 -0.056381263 0.07541666 -0.0639728 -0.22169636 0.16177934 0.118621364 0.08321527
0.057308108 0.034871984 0.277037 0.039634638 0.05809771 0.114797056 0.12293133 -0.030495267
0.038690694 0.026500491 0.27439922 -0.048799597 0.0058223433 -0.045985736 -0.011103361 -0.09864058
-0.010397241 0.05753844 -0.38867977 -0.011109591 -0.19480886 -0.009419162 0.09270033 0.077724665
0.17899135 -0.0720386 0.059382085 -0.23021957 0.049895182 0.049071457 -0.039930273 0.23875985
-0.03882737 0.13987446 -0.15449293 -0.14860253 -0.099279106 -0.29451028 0.11157466 0.061077133
0.034917343 -0.1791155 -0.038047425 -0.0090977475 0.20743208 -0.10094318 -0.16555235 0.04975197
0.056564227 0.042512294 -0.0034335107 -0.06191855 -0.0878606 0.18566051 -0.053282645 -0.06170739
-0.04159649 -0.23946859 0.19772741 0.16583578 -0.123575814 0.053280663 -0.110436544 -0.1328892
0.19146824 0.053029906 -0.030973189 0.06344472 -0.087964416 0.05035929 -0.02887028 0.21260446
0.090243176 -0.098394126 0.108427525 -0.15164106 0.2951479 -0.07913869 -0.15405732 -0.07526466
-0.09059379 0.048585467 0.040971722 0.07577188 0.20083542 -0.051186703 0.030832902 0.10784915
0.05380234 -0.18610378 0.04314526 0.15037729 -0.3857478 -0.08502596 0.05112036 0.10430721
-0.12543705 -0.021574404 -0.08126947 -0.06481226 0.09630358 -0.0041180016 0.108182 0.09217255
0.15318644 -0.29639098 0.013971232 0.06636844 -0.23695762 -0.097842984 0.1633862 0.08977431
0.04573341 -0.068914965 0.018352995 0.32666326 -0.14820606 -0.05500671 0.11803652 0.05719373
-0.03913458 0.12793513 0.024101615 -0.034676507 -0.016818559 0.053687956 0.035411507 0.05588478
0.073048435 -0.074200615 0.14930844 -0.08298988 0.111765 0.06283175 0.2133581 -0.12549628
0.11653093 -0.03161 -0.01595687 -0.11143782 -0.10351708 -0.14919212 0.17866006 0.1090732
0.38510337 -0.059807643 -0.1812713 0.010779129 -0.09154164 0.07872077 0.0684995 -0.18552493
0.003583342 -0.044867355 0.084480524 -0.025049107 -0.07680117 -0.05285656 0.17700715 -0.08730889
-0.047938574 -0.20479296 -0.14819796 -0.049551483 0.103719614 -0.12583113 0.056890205 0.022790866
-0.08541038 0.22386636 -0.029406924 -0.13531412 -0.04233857 -0.21213321 0.05082044 0.010821033
-0.08841567 -0.07518775 0.011170078 0.12406024 0.25119412 0.025431344 -0.17297457 -0.10167903
-0.07758014 0.10519855 -0.108643554 -0.047294863 0.032598533 -0.26088977 0.13674611 -0.20501113
0.17683364 -0.074451365 -0.04555251 -0.016768897 -0.055604 -0.08619847 -0.061305255 -0.087087065
-0.0017014422 -0.11765657 0.22816287 0.07723943 -0.036268447 -0.0827542 -0.16624087 -0.11523282
0.13704811 0.09469741 -0.029455509 0.072987415 -0.088769816 0.11465697 -0.05281447 0.019304015
-0.028600523 0.03138356 -0.09484589 0.018192576 0.29871288 -0.12297376 0.13272662 -0.05671846
-0.07450764 0.16877185 -0.11940948 0.14205627 -0.11769399 -0.030040745 0.068804435 0.23387873
-0.088220544 0.023195008 -0.090682164 0.15376641 0.12731737 -0.21604852 -0.15272701 -0.018086504
00000000: 3ce9 00be 41a0 a63d 7d16 81bd 8448 0b3e
00000010: f786 14be ef9b 36bc 3eaa 1abe 6be2 873d
00000020: a141 bdbd 0af0 66bd 0d74 9a3d 2c04 83bd
00000030: 5f04 63be 7ca9 253e c2ef f23d c46c aa3d
00000040: e8bb 6a3d edd5 0e3d cbd7 8d3e ee57 223d
00000050: ddf7 6d3d b81a eb3d 6cc3 fb3d 36d1 f9bc
00000060: 227a 1e3d 8f17 d93c 0e7e 8c3e 16e2 47bd
00000070: 5bc9 be3b 8a5b 3cbd dfea 35bc 1304 cabd
00000080: 3159 2abc 6dad 6b3d 0901 c7be 0105 36bc
00000090: f97b 47be d452 1abc acd9 bd3d 1c2e 9f3d
000000a0: 8249 373e f988 93bd a13a 733d aebe 6bbe
000000b0: e45e 4c3d 27ff 483d ed8d 23bd 767d 743e
000000c0: 7309 1fbd 403b 0f3e 6533 1ebe 432b 18be
000000d0: d852 cbbd 0dca 96be 4181 e43d 042c 7a3d
000000e0: 7d05 0f3d 0e6a 37be 9ed7 1bbd b80e 15bc
000000f0: 1369 543e 4cbb cebd 8e86 29be b9c8 4b3d
00000100: e4af 673d 5f21 2e3d c004 61bb 4e9e 7dbd
00000110: 42f0 b3bd ca1d 3e3e e73e 5abd e3c0 7cbd
00000120: 1561 2abd 4137 75be 0e79 4a3e dbd0 293e
00000130: 5115 fdbd d33c 5a3d 8e2c e2bd 1b14 08be
00000140: 4010 443e e335 593d 7cbb fdbc 4eef 813d
00000150: b026 b4bd 8b45 4e3d 5e81 ecbc fcb4 593e
00000160: 6ad1 b83d dc82 c9bd 400f de3d cb47 1bbe
00000170: a01d 973e 7713 a2bd 34c1 1dbe 5c24 9abd
00000180: 3d89 b9bd 8e01 473d f7d1 273d 4a2e 9b3d
00000190: cda7 4d3e 26a9 51bd 4895 fc3c 04e0 dc3d
000001a0: d85f 5c3d fd91 3ebe 16b9 303d 81fc 193e
000001b0: bc80 c5be 1722 aebd 9563 513d 059f d53d
000001c0: 9272 00be cebc b0bc 9c70 a6bd 4abc 84bd
000001d0: d03a c53d 4df0 86bb 868e dd3d f6c4 bc3d
000001e0: e8dc 1c3e 8fc0 97be 98e7 643c 2dec 873d
000001f0: 05a5 72be e761 c8bd b64e 273e 98db b73d
00000200: f552 3b3d 4a23 8dbd 0559 963c 6840 a73e
00000210: 54c3 17be b74e 61bd 22bd f13d f943 6a3d
00000220: 954b 20bd 6d01 033e c070 c53c f408 0ebd
00000230: 13c7 89bc e7e7 5b3d a80b 113d 70e7 643d
00000240: 6b9a 953d 7ef6 97bd 50e4 183e 99f6 a9bd
00000250: 0ce5 e43d efad 803d 8c7a 5a3e 1982 00be
00000260: c5a7 ee3d 7d79 01bd fbb7 82bc 8339 e4bd
00000270: c300 d4bd d2c5 18be aaf2 363e c561 df3d
00000280: 452c c53e dcf8 74bd 2f9f 39be f29a 303c
00000290: 2f7a bbbd 5b38 a13d 7749 8c3d 3ffa 3dbe
000002a0: 81d6 6a3b d5c6 37bd 2004 ad3d c933 cdbc
000002b0: ef49 9dbd 1f80 58bd 5d41 353e 01cf b2bd
000002c0: 3d5b 44bd 3fb5 51be 35c1 17be 7ff6 4abd
000002d0: f36a d43d e0d9 00be b405 693d e9b3 ba3c
000002e0: a3eb aebd 393d 653e cae6 f0bc c98f 0abe
000002f0: 356b 2dbd 7339 59be 1829 503d b44a 313c
00000300: 4613 b5bd 09fc 99bd b402 373c 4c13 fe3d
00000310: 849c 803e 6555 d03c 3f20 31be 183d d0bd
00000320: 56e2 9ebd 5672 d73d 8380 debd 42b8 41bd
00000330: 0a86 053d 5893 85be 2c07 0c3e 70ee 51be
00000340: e113 353e f579 98bd 4595 3abd ed5e 89bc
00000350: 05c1 63bd d388 b0bd 381b 7bbd b45a b2bd
00000360: ed02 dfba eef5 f0bd 87a3 693e b52f 9e3d
00000370: 398e 14bd 097b a9bd 0c3b 2abe 2fff ebbd
00000380: 5756 0c3e b7f0 c13d ae4c f1bc 6d7a 953d
00000390: f3cc b5bd 46d1 ea3d fc53 58bd 7423 9e3c
000003a0: a54b eabc 0c8c 003d 903e c2bd 9908 953c
000003b0: e5f0 983e abd9 fbbd 7de9 073e 9e51 68bd
000003c0: 7697 98bd 87d2 2c3e f58c f4bd 3377 113e
000003d0: 8c09 f1bd 0218 f6bc 57e9 8c3d e87d 6f3e
000003e0: f9ac b4bd 7503 be3c 92b7 b9bd f174 1d3e
000003f0: 7c5f 023e d33b 5dbe 7864 1cbe 262a 94bc

model.0.bias f4 [32]
-7.325128e-05 0.00010657502 5.8305475e-05 -5.3908945e-05 3.7746595e-05 0.00011997932 -7.040369e-05 0.0001723789
0.00017446998 -0.0001410383 0.00012094713 -3.907768e-05 8.8485336e-05 -3.2256758e-06 0.00010820882 -0.00010026652
6.3451735e-05 -1.494502e-05 -1.9168197e-05 -2.357993e-05 -2.8526554e-05 -7.4779964e-05 3.8246715e-05 0.000102793085
-0.00014984915 -0.00022446412 -8.053686e-05 0.00017180947 7.704761e-06 -5.626957e-05 5.5179917e-05 4.4464512e-05
00000000: 7b9e 99b8 0781 df38 078d 7438 4a1c 62b8
00000010: 1952 1e38 689d fb38 b1a5 93b8 9cc0 3439
00000020: eef1 3639 aee3 13b9 ffa4 fd38 57e7 23b8
00000030: 3491 b938 b078 58b6 2bee e238 2e46 d2b8
00000040: 6411 8538 5fbc 7ab7 64cb a0b7 84cd c5b7
00000050: 4f4c efb7 30d3 9cb8 196b 2038 9e92 d738
00000060: d320 1db9 215e 6bb9 e6e5 a8b8 c127 3439
00000070: b243 0137 fe02 6cb8 fc70 6738 687f 3a38

model.1.weight f4 [32]
0.5129991 0.5473596 0.50471133 0.68380564 0.58227575 0.6702449 0.7484172 0.63977486
0.720321 0.6387042 0.6783773 0.642835 0.5606174 0.69523704 0.55174905 0.7025053
0.3089027 0.6173776 0.7430449 0.73503774 0.606571 0.65462846 0.5904769 0.5096821
0.70213735 0.69572735 0.6285175 0.6080353 0.49472493 0.62967116 0.6269475 0.68483627
00000000: e953 033f c21f 0c3f c334 013f e30d 2f3f
00000010: 0610 153f 2b95 2b3f 4598 3f3f 49c8 233f
00000020: f566 383f 1e82 233f 22aa 2d3f d690 243f
00000030: 9f84 0f3f 0efb 313f 6d3f 0d3f 63d7 333f
00000040: 7f28 9e3e 750c 1e3f 3138 3e3f 6f2b 3c3f
00000050: 3d48 1b3f bb95 273f 7e29 173f 877a 023f
00000060: 46bf 333f 301b 323f 86e6 203f 34a8 1b3f
00000070: 964c fd3e 2132 213f a27f 203f 6e51 2f3f

model.1.bias f4 [32]
0.03755738 -0.115010776 0.15813743 0.04047431 0.09331914 -0.30681738 -0.16654728 0.076070756
-0.16663717 0.08468203 -0.05308634 -0.29836088 0.08651433 -0.14380132 0.016108636 -0.007627339
0.3669173 -0.024413558 0.13329192 0.056522485 0.13608131 -0.043245517 0.12585959 -0.04252318
-0.071740985 -0.05538647 -0.11809494 -0.18139987 -0.042012196 -0.40444627 -0.099713564 -0.09306891
00000000: c4d5 193d c58a ebbd c7ee 213e 64c8 253d
00000010: 1b1e bf3d 2b17 9dbe 5f8b 2abe fcca 9b3d
00000020: efa2 2abe c66d ad3d 1071 59bd c2c2 98be
00000030: 6d2e b13d a740 13be 42f6 833c c2ee f9bb
00000040: 96dc bb3e f1fe c7bc ad7d 083e 1f84 673d
00000050: e658 0b3e 3622 31bd 56e1 003e c92c 2ebd
00000060: f0ec 92bd ecdc 62bd c3db f1bd e3c0 39be
00000070: fb14 2cbd 9513 cfbe a036 ccbd ea9a bebd

model.1.running_mean f4 [32]
0.08934364 -0.05563988 -0.0765008 0.03500574 0.24302684 0.16531903 -0.19769445 0.09589314
0.10455884 -0.031790406 0.103681475 -0.10981092 -0.0017919961 0.055424437 -0.00298418 0.04886883
0.0021780184 0.03497845 0.2136188 -0.036819268 0.016220734 0.016062833 0.14285068 0.07023933
0.10639392 -0.24840762 0.051005907 0.046682447 -0.004488601 0.12462853 0.1411871 0.06041616
00000000: ccf9 b63d a5e6 63bd 74ac 9cbd 2e62 0f3d
00000010: 07dc 783e 6449 293e 6a70 4abe 9f63 c43d
00000020: f222 d63d a836 02bd f456 d43d 8ce4 e0bd
00000030: 69e1 eaba bc04 633d 3c92 43bb af2a 483d
00000040: 16bd 0e3b 9045 0f3d e3be 5a3e cdcf 16bd
00000050: 58e1 843c 3496 833c 7347 123e a3d9 8f3d
00000060: 0ee5 d93d 915e 7ebe 92eb 503d 1836 3f3d
00000070: 1d15 93bb 3e3d ff3d 5a93 103e ef76 773d

model.1.running_var f4 [32]
0.019834178 0.019327333 0.02779597 0.0517978 0.03810044 0.04994712 0.04353113 0.038080793
0.07497519 0.031052042 0.032938242 0.02409084 0.020630758 0.026163371 0.0388671 0.046817128
0.014232061 0.022625588 0.0342265 0.07587351 0.030460026 0.03164198 0.037862755 0.021571096
0.031325858 0.045209408 0.025680223 0.032152627 0.029580362 0.031089429 0.0240066 0.038198266
00000000: 497b a23c 5b54 9e3c 60b4 e33c ee29 543d
00000010: 350f 1c3d 5a95 4c3d b34d 323d 9bfa 1b3d
00000020: 988c 993d da60 fe3c 40ea 063d 275a c53c
00000030: d601 a93c 9154 d63c 1c33 1f3d 51c3 3f3d
00000040: 972d 693c 4c59 b93c 1631 0c3d 9263 9b3d
00000050: 4e87 f93c 059b 013d fa15 1b3d deb5 b03c
00000060: 8b4f 003d 802d 393d 555f d23c 79b2 033d
00000070: 8452 f23c 42af fe3c 7da9 c43c c975 1c3d

model.3.weight f4 [8, 32]
0.01124586 -0.06099097 0.13205358 0.053988766 0.11482623 -0.062476672 0.087605424 0.07193092
-0.04150415 -0.041398037 -0.1315162 0.21225145 0.055631544 -0.12935862 0.18469362 -0.11635906
-0.07444929 -0.24870476 -0.06347607 -0.09849862 0.059796046 -0.24957596 0.010776758 0.021024356
0.2632516 0.040986717 0.1524306 0.022794917 0.023913618 -0.22972515 -0.21861996 0.08875407
0.12663889 -0.16199255 -0.01727113 -0.23273763 -0.022324368 -0.009887934 0.11417305 -0.13228762
-0.19985914 0.092859164 0.17245036 0.26787883 -0.07306053 0.16891041 0.06674234 0.09903534
-0.04222722 0.021928988 -0.1691745 0.059091073 0.1369103 0.11380522 -0.01237689 0.16642886
0.0125834895 -0.13949005 -0.06534621 0.23590066 -0.14262803 0.1103737 0.08640762 -0.13894846
0.04424194 -0.067785546 -0.06344584 0.045322414 -0.22851916 -0.04396532 -0.031748384 0.004609587
0.1693431 0.07458003 0.068142705 -0.11263401 -0.052689146 0.016178021 -0.049899027 0.0636199
-0.14058198 0.037788805 -0.14168 -0.05877571 0.014244094 -0.0056828004 -0.1597421 0.005971464
-0.05060029 0.008638923 -0.15184972 -0.016394082 0.027366469 0.20788988 0.120789155 0.03235289
0.035714258 -0.15915361 -0.003072549 0.14726338 0.10791484 -0.008826338 -0.0015514939 -0.071544096
0.08053838 -0.0119850375 -0.11682211 0.14199212 0.17448257 0.13367225 0.13832535 -0.033670187
0.0160429 0.03365991 0.19995321 -0.3081067 -0.20722134 -0.19679342 -0.14187041 -0.12814265
0.041846182 0.15150036 0.04808093 0.1141738 0.030305335 -0.11796775 -0.089855544 0.1733877
0.018177269 0.07948013 0.12243305 0.007184613 -0.014535585 0.23428553 -0.31050417 0.17285393
0.15936935 -0.11628573 0.08560439 -0.056148462 0.050551664 -0.011667788 0.05297049 -0.23562525
-0.008775899 0.23160984 0.08136399 0.02487284 -0.11388885 0.06533108 0.102212206 -0.029187744
-0.23164636 0.034658223 0.04726439 -0.09424883 0.054318838 0.2972741 0.042754956 -0.001671715
0.011241117 -0.0655254 -0.12732555 0.013961331 -0.0025311972 0.040071264 0.053961128 -0.10498943
0.078834675 0.020379838 0.0060143447 -0.11741142 0.005594238 0.07257963 0.023817098 -0.006940383
0.081137106 0.14141855 0.032102216 0.15108237 -0.10233822 -0.021990625 -0.042402137 -0.017011281
-0.06607766 -0.031793557 -0.014715007 0.013502217 -0.07320794 -0.1692949 0.08761375 -0.07296208
-0.265007 0.08209962 0.14035033 0.11493021 0.10320345 0.22226495 -0.15826513 0.08614142
0.1013769 -0.1787223 -0.06519955 0.17188153 -0.025142053 -0.17975815 0.027094048 -0.06535635
-0.029410252 -0.011111536 -0.028466111 -0.096847765 0.018374 -0.039042257 0.23563948 -0.11118558
-0.2542318 -8.664241e-05 0.066472605 -0.027506484 0.07230375 0.07790274 -0.123634264 0.07701527
-0.029335704 -0.037067354 -0.06988731 0.05307729 0.028793894 0.04077529 0.050426293 -0.08021886
0.06349365 0.012495496 0.0017254753 -0.10412413 -0.005108325 0.069857895 0.020937594 -0.002759444
-0.44954056 0.11514093 0.035157133 0.15236421 -0.07155123 -0.07070191 -0.07732642 0.026348025
-0.0077875727 -0.02609841 -0.015455334 -0.018930536 -0.10583062 -0.15082827 0.083685495 -0.075250134
00000000: 8e40 383c abd1 79bd 0e39 073e 5323 5d3d
00000010: 042a eb3d 8ae7 7fbd 796a b33d 8550 933d
00000020: 4100 2abd fd90 29bd 2fac 06be 7258 593e
00000030: e7dd 633d 9676 04be 5320 3d3e a94d eebd
00000040: df78 98bd 76ac 7ebe beff 81bd a5b9 c9bd
00000050: b3ec 743d d790 7fbe 0091 303c 453b ac3c
00000060: eac8 863e b0e1 273d c416 1c3e 68bc ba3c
00000070: 7ee6 c33c 123d 6bbe e9dd 5fbe b2c4 b53d
00000080: a0ad 013e 60e1 25be 2f7c 8dbc c652 6ebe
00000090: 98e1 b6bc 0001 22bc 8fd3 e93d 6876 07be
000000a0: e0a7 4cbe f22c be3d d496 303e 6a27 893e
000000b0: c2a0 95bd daf6 2c3e 35b0 883d 0ad3 ca3d
000000c0: 73f6 2cbd 6ca4 b33c 153c 2dbe 7b09 723d
000000d0: 3732 0c3e b612 e93d 70c8 4abc 546c 2a3e
000000e0: fb2a 4e3c 7bd6 0ebe 3cd4 85bd f18f 713e
000000f0: 150d 12be 9b0b e23d 7af6 b03d 8148 0ebe
00000100: 0937 353d 26d3 8abd e4ef 81bd ffa3 393d
00000110: ed00 6abe fb14 34bd 980a 02bd 050c 973b
00000120: 4768 2d3e 6abd 983d 678e 8b3d a9ac e6bd
00000130: 93d0 57bd c587 843c ec62 4cbd 264b 823d
00000140: b9f4 0fbe 6fc8 1a3d 9014 11be cdbe 70bd
00000150: 0f60 693c c936 babb 6f93 23be 45ac c33b
00000160: 4042 4fbd 458a 0d3c 7e7e 1bbe e24c 86bc
00000170: a52f e03c 16e1 543e 4e60 f73d 7784 043d
00000180: 1d49 123d 2af9 22be d15c 49bb 36cc 163e
00000190: 7502 dd3d 589c 10bc 7f5b cbba b685 92bd
000001a0: 4ef1 a43d e45c 44bc 6e40 efbd 6266 113e
000001b0: 8fab 323e 61e1 083e 29a5 0d3e c0e9 09bd
000001c0: 666c 833c f9de 093d 89c0 4c3e 29c0 9dbe
000001d0: d531 54be 3784 49be 7a46 11be d437 03be
000001e0: e766 2b3d e922 1b3e 82f0 443d f4d3 e93d
000001f0: e542 f83c 1399 f1bd 2f06 b8bd 8c8c 313e
00000200: 7fe8 943c 7ac6 a23d 2ebe fa3d e76c eb3b
00000210: aa26 6ebc 8ce8 6f3e 67fa 9ebe 9f00 313e
00000220: b831 233e 3627 eebd 5b51 af3d eefb 65bd
00000230: 430f 4f3d 402a 3fbc 96f7 583d bf47 71be
00000240: cac8 0fbc 212b 6d3e 2aa2 a63d 20c2 cb3c
00000250: 8f3e e9bd 4dcc 853d a254 d13d 231b efbc
00000260: b434 6dbe c8f5 0d3d 4e98 413d 8805 c1bd
00000270: 6e7d 5e3d 5034 983e d21f 2f3d 731d dbba
00000280: a92c 383c 2e32 86bd a161 02be 11be 643c
00000290: 71e2 25bb c421 243d 5806 5d3d b304 d7bd
000002a0: 1374 a13d 9ef3 a63c fb13 c53b 6675 f0bd
000002b0: df4f b73b a1a4 943d 131c c33c 276c e3bb
000002c0: 362b a63d 06d0 103e 9d7d 033d 56b5 1a3e
000002d0: b396 d1bd af25 b4bc ddad 2dbd 3e5b 8bbc
000002e0: b953 87bd f639 02bd 3617 71bc 6738 5d3c
000002f0: 0bee 95bd a45b 2dbe d66e b33d 256d 95bd
00000300: ffae 87be d823 a83d ffb7 0f3e 8860 eb3d
00000310: 555c d33d 6c99 633e 4110 22be ea6a b03d
00000320: b19e cf3d fb02 37be 5787 85bd b601 303e
00000330: b5f6 cdbc 8512 38be 56f4 dd3c 8dd9 85bd
00000340: c5ed f0bc 290d 36bc c331 e9bc 1f58 c6bd
00000350: 1285 963c c6ea 1fbd 7a4b 713e 44b5 e3bd
00000360: ac2a 82be cab3 b5b8 ca22 883d 4755 e1bc
00000370: fd13 943d 798b 9f3d f633 fdbd 2fba 9d3d
00000380: 6e51 f0bc f0d3 17bd 1421 8fbd 9367 593d
00000390: 2ce1 eb3c fe03 273d cd8b 4e3d c949 a4bd
000003a0: f508 823d e9b9 4c3c 5829 e23a 083f d5bd
000003b0: bc63 a7bb a811 8f3d 5185 ab3c cad7 34bb
000003c0: 2e2a e6be 02cf eb3d ed00 103d 5d05 1c3e
000003d0: 7489 92bd 2acc 90bd 505d 9ebd d0d7 d73c
000003e0: e52e ffbb 55cc d5bc 5f38 7dbc 3614 9bbc
000003f0: b9bd d8bd ba72 1abe 4d63 ab3d be1c 9abd

model.3.bias f4 [8]
2.7260394e-05 -0.00026866078 -7.3746145e-05 -0.0001593732 0.0001236926 -3.984497e-05 9.683151e-05 -1.3128931e-05
00000000: 40ad e437 0adb 8cb9 29a8 9ab8 6b1d 27b9
00000010: 7bb3 0139 361f 27b8 0512 cb38 5444 5cb7

model.4.weight f4 [8]
2.0529208 1.9795877 1.1740746 2.0208929 1.9965919 0.3155947 1.5479712 0.62445194
00000000: 0e63 0340 2163 fd3f 1448 963f 4f56 0140
00000010: 5390 ff3f a195 a13e ec23 c63f 15dc 1f3f

model.4.bias f4 [8]
0.49736148 0.29181987 0.075723596 0.1875347 0.5852602 0.5308355 -0.06854788 0.6528468
00000000: 2aa6 fe3e 6a69 953e f914 9b3d 1909 403e
00000010: 9dd3 153f d6e4 073f d562 8cbd f820 273f

model.4.running_mean f4 [8]
-0.02737986 0.041517064 -0.17384854 0.03951877 0.1226399 -3.7365447e-05 -0.05502788 -0.18043412
00000000: ba4b e0bc cc0d 2a3d 5a05 32be 6fde 213d
00000010: a12a fb3d d8b8 1cb8 ea64 61bd b9c3 38be

model.4.running_var f4 [8]
0.024305094 0.01266624 0.01731318 0.020280758 0.018044494 0.008287798 0.016371455 0.016330406
00000000: 7a1b c73c 1086 4f3c 5fd4 8d3c d523 a63c
00000010: 0cd2 933c 8bc9 073c 6e1d 863c 58c7 853c

model.6.weight f4 [3, 8]
0.024220547 0.016359193 0.07964118 -0.0035739809 0.015089295 0.20491084 -0.08870757 0.04974144
-0.014675026 -0.00342806 0.018798057 -0.009319306 -0.003491199 -0.4643979 0.011207829 0.4199024
-1.8400695 1.751723 1.0941399 -1.862946 -1.9077768 0.118451655 -1.522783 0.6516539
00000000: 2b6a c63c b703 863c ea1a a33d 7339 6abb
00000010: 1739 773c 26d4 513e 51ac b5bd aebd 4b3d
00000020: 856f 70bc 4ea9 60bb 62fe 993c 01b0 18bc
00000030: 9acc 64bb 90c5 edbe 0ba1 373c 73fd d63e
00000040: 6687 ebbf 7638 e03f c70c 8c3f 0475 eebf
00000050: 0832 f4bf c896 f23d 8eea c2bf cad2 263f

model.6.bias f4 [3]
0.16981867 -0.025816344 0.050492644
00000000: f2e4 2d3e cc7c d3bc 60d1 4e3d
