project/models/dqn.all3Replays.pt (torch_old, 8287 bytes, 13 tensors)

model.0.weight f4 [32, 32]
-0.100180544 0.08640431 -0.022374162 0.0015117972 0.056784485 0.07268229 -0.01640151 0.062181987
0.03443361 -0.011521764 0.054533683 -0.06251405 0.027558636 0.043398764 0.04722544 0.075369865
0.027118066 -0.14355488 0.016530229 0.03608354 -0.068077706 0.053184163 0.052098334 0.12416789
-0.064367816 0.07401293 0.03937661 0.019331846 0.058616508 -0.0050937557 0.0016151594 -0.001514279
0.020931719 0.03646262 0.007915698 -0.003929808 -0.046876095 -0.0077497046 0.072125934 -0.02731844
-0.02294892 0.01043858 0.0021646 0.031142658 0.023334444 0.018927928 -0.03645718 -0.0009318898
0.0596984 -0.101969674 0.0013675825 0.020079177 0.028352309 0.046673764 0.0062756673 0.041380305
-0.00083915336 0.016009018 -0.0050092386 0.029846432 0.04158123 -0.0041517615 -0.0073614414 0.021156475
-0.03916986 0.043304365 0.020564407 0.012501185 0.045867987 -0.03470096 0.028554643 -0.10533804
-0.022930132 -0.00088884967 -0.0011610378 -0.009668116 0.03228152 -0.023303045 -0.048402723 0.061462093
-0.037227925 -0.022974223 -0.00403893 0.025217233 0.005652395 -0.002193213 -0.032824147 -0.08480202
0.033250548 -0.0011421767 0.010498815 -0.025413554 -0.03697463 -0.0016089559 -0.002614256 0.0112582715
0.020888368 0.06241982 -0.058559354 -0.103487104 -0.06064691 0.047349665 -0.040947475 0.032479055
0.06438465 -0.0014311174 0.23901393 -0.058367375 -0.029458852 -0.0014377639 -0.04702685 -0.00086868706
0.0042256224 -0.029811574 0.021396158 -0.02779517 0.027615085 0.013544104 -0.016210705 0.05051595
0.0628397 0.008306641 0.017177029 -0.009119259 -0.0027260617 -0.04445681 -0.016526368 0.009900024
-0.013480008 -0.011447715 -0.05846258 0.016151644 -0.17025127 0.0065400847 -0.084306575 0.062424187
-0.005256881 -0.025448298 0.13260593 0.05187789 -0.031113358 -0.018434517 0.004447348 -0.11598661
0.01387964 0.13584758 -0.048974402 -0.026143901 0.005007512 -0.03486184 0.006669402 -0.047371622
0.017893387 -0.031431865 0.009181415 0.00054321595 -0.06417055 0.0144696925 -0.005931191 0.0002111327
0.07936081 -0.0100187315 0.051568236 0.036390074 0.019992694 0.06688756 -0.10028189 -0.16009142
-0.019502541 -0.084084444 -0.14715537 -0.08008052 -0.0047244504 -0.024023071 0.091304354 0.050954837
-0.0013633624 -0.044961795 -0.0024688053 -0.023944577 -0.060733862 -0.02175113 -0.0005616661 0.009170083
-0.056134492 -0.061154168 -0.01684873 0.01599729 0.05149956 -0.0057642087 0.008953199 -0.013805982
0.020241724 0.005138169 -0.02668304 -0.046397 0.11240631 0.0727035 -0.123543315 0.06713461
0.096424595 -0.02034951 0.208103 -0.044405017 -0.004539968 -0.035585247 0.024631245 0.030093271
-0.032033317 -0.15480992 -0.009089107 -0.030503219 -0.04259831 0.005664305 0.02287807 0.057769723
0.020939829 0.01705154 0.0249833 -0.011710769 0.007174806 0.01860506 -0.0025673867 -0.0031756614
0.044728912 -0.015422955 0.029294131 0.05737851 -0.07748004 -0.15162049 0.13383381 -0.10384316
-0.117800534 0.027757619 -0.26935676 0.062600635 0.004573084 0.012828672 -0.03476469 -0.02641428
-0.020642785 0.16631639 -0.03515284 0.010223591 0.05991793 -0.025574159 -0.030157583 -0.105112754
0.0027924406 -0.052380335 -0.033888374 0.036869433 -0.0351108 0.0035253826 0.0070216698 0.0031491988
00000000: 752b cdbd bef4 b03d 054a b7bc 7f27 c63a
00000010: d996 683d 74da 943d 765c 86bc 8ab2 7e3d
00000020: 420a 0d3d c8c5 3cbc b65e 5f3d 5e07 80bd
00000030: a6c2 e13c e7c2 313d 776f 413d 845b 9a3d
00000040: b526 de3c 0d00 13be 676a 873c 56cc 133d
00000050: 536c 8bbd a3d7 593d 1065 553d bc4b fe3d
00000060: 46d3 83bd 1794 973d 5e49 213d d25d 9e3c
00000070: dd17 703d 85e9 a6bb c2b3 d33a c67a c6ba
00000080: ff78 ab3c d459 153d d8b0 013c 9ec5 80bb
00000090: 2601 40bd 3cf1 fdbb c3b6 933d ecca dfbc
000000a0: 60ff bbbc 9406 2b3c f6db 0d3b e31e ff3c
000000b0: e027 bf3c be0e 9b3c 2054 15bd 114a 74ba
000000c0: 4f86 743d 7ad5 d0bd 7440 b33a 167d a43c
000000d0: 1a43 e83c fd2c 3f3d 1da4 cd3b 657e 293d
000000e0: a1fa 5bba 5825 833c 8a24 a4bb 8180 f43c
000000f0: 1451 2a3d 800b 88bb 3f38 f1bb 5850 ad3c
00000100: 9370 20bd eb5f 313d b076 a83c c5d1 4c3c
00000110: 12e0 3b3d 9822 0ebd 6deb e93c 78bb d7bd
00000120: f9d7 bbbc b101 69ba f72d 98ba 0567 1ebc
00000130: a139 043d 07e6 bebc ef41 46bd adbf 7b3d
00000140: 4f7c 18bd 7034 bcbc 0059 84bb 5f94 ce3c
00000150: ba37 b93b 02bc 0fbb 9d72 06bd aeac adbd
00000160: ba31 083d 17b5 95ba 3903 2c3c 1630 d0bc
00000170: b672 17bd 9ae3 d2ba f053 2bbb 9d74 383c
00000180: 151e ab3c edab 7f3d efdb 6fbd 0cf1 d3bd
00000190: e568 78bd b9f1 413d 8ab8 27bd c208 053d
000001a0: 19dc 833d 5594 bbba 11c0 743e a112 6fbd
000001b0: b153 f1bc 5a73 bcba 3a9f 40bd 9ab8 63ba
000001c0: 1777 8a3b 6737 f4bc ff46 af3c b2b2 e3bc
000001d0: 0839 e23c 17e8 5d3c 50cc 84bc d0e9 4e3d
000001e0: 1ab2 803d 9418 083c d7b6 8c3c f268 15bc
000001f0: baa7 32bb 5818 36bd 4e62 87bc b633 223c
00000200: 40db 5cbc 328f 3bbc 7576 6fbd 7450 843c
00000210: 5956 2ebe 354e d63b eda8 acbd 81b0 7f3d
00000220: ea41 acbb f378 d0bc d9c9 073e e97d 543d
00000230: 71e1 febc fc03 97bc 0fbb 913b 638a edbd
00000240: 6e67 633c a11b 0b3e 6299 48bd bc2b d6bc
00000250: 0e16 a43b 4acb 0ebd 008b da3b bf08 42bd
00000260: 2795 923c b3be 00bd a56d 163c 9b66 0e3a
00000270: d96b 83bd 4a12 6d3c 705a c2bb 8163 5d39
00000280: ec87 a23d 9b25 24bc 3739 533d c20d 153d
00000290: b8c7 a33c 58fc 883d 9760 cdbd 01ef 23be
000002a0: cbc3 9fbc 7734 acbd e6af 16be 4101 a4bd
000002b0: 90cf 9abb 08cc c4bc c7fd ba3d 05b6 503d
000002c0: dab2 b2ba dc29 38bd aecb 21bb 6b27 c4bc
000002d0: 12c4 78bd 6d2f b2bc c63c 13ba 1e3e 163c
000002e0: 48ed 65bd cb7c 7abd 5906 8abc c00c 833c
000002f0: 34f1 523d b0e1 bcbb 70b0 123c 7c32 62bc
00000300: f9d1 a53c 165e a83b 6496 dabc c80a 3ebd
00000310: 4835 e63d 93e5 943d 4704 fdbd df7d 893d
00000320: 427a c53d 04b4 a6bc f418 553e 09e2 35bd
00000330: 03c4 94bb d6c1 11bd 77c7 c93c 2a86 f63c
00000340: 5e35 03bd 7e86 1ebe 7aea 14bc e3e1 f9bc
00000350: 917b 2ebd a29b b93b ca6a bb3c f29f 6c3d
00000360: 018a ab3c acaf 8b3c c7a9 cc3c 86de 3fbc
00000370: a31a eb3b a469 983c 9a41 28bb c21e 50bb
00000380: aa35 373d 90b0 7cbc 3ffa ef3c ba05 6b3d
00000390: dbad 9ebd 6742 1bbe bb0b 093e b9ab d4bd
000003a0: 6841 f1bd f263 e33c 21e9 89be c334 803d
000003b0: cfd9 953b 5a2f 523c 6b65 0ebd c362 d8bc
000003c0: 0f1b a9bc d84e 2a3e 6dfc 0fbd d980 273c
000003d0: 816c 753d e680 d1bc 090d f7bc 5b45 d7bd
000003e0: 6101 373b c38c 56bd 89ce 0abd 6704 173d
000003f0: 58d0 0fbd 1b0a 673b 0916 e63b ca62 4e3b

model.0.bias f4 [32]
3.3117823e-07 -4.036394e-07 -1.5746124e-07 2.2171912e-07 9.818177e-07 4.283578e-08 6.5398254e-08 -1.6966621e-06
-1.7478361e-06 2.6920907e-07 -1.834021e-06 -3.411365e-07 -1.8215121e-06 1.0042925e-08 -5.6069916e-07 -7.1015265e-08
-9.564047e-10 1.6425551e-07 4.6014497e-07 1.8526072e-06 5.3570875e-07 1.6383054e-06 1.065992e-08 -6.2579744e-07
4.653175e-07 -2.4306817e-07 3.665103e-07 9.235481e-08 -1.277632e-07 -8.632057e-08 1.856137e-06 3.5961267e-07
00000000: cacc b134 c7b3 d8b4 9e12 29b4 b011 6e34
00000010: 00c7 8335 70fa 3733 1271 8c33 deb8 e3b5
00000020: 3197 eab5 d087 9034 7b28 f6b5 7225 b7b4
00000030: ae7a f4b5 4089 2c32 f482 16b5 0e81 98b3
00000040: 8072 83b0 365e 3034 d809 f734 19a7 f835
00000050: a0cd 0f35 bfe3 db35 d322 3732 79fc 27b5
00000060: c0d0 f934 097f 82b4 cbc4 c434 9854 c633
00000070: 482f 09b4 3c5f b9b3 6220 f935 ca10 c134

model.1.weight f4 [32]
0.6509261 0.28852797 0.26543444 0.5788983 0.66353184 0.61923987 0.6230516 0.7826763
0.8394424 0.39686424 0.82945657 0.59732133 0.6701369 0.3023903 0.4799056 0.57174
0.42320222 0.601264 0.61869204 0.82073605 0.4675635 0.5635731 0.42736635 0.3516112
0.6354939 0.27112237 0.537057 0.6756373 0.39912096 0.53144044 0.6645005 0.47146612
00000000: 18a3 263f f0b9 933e 06e7 873e ae32 143f
00000010: 39dd 293f 8186 1e3f 4f80 1f3f 795d 483f
00000020: b2e5 563f ca31 cb3e 4457 543f 0dea 183f
00000030: 188e 2b3f e7d2 9a3e 30b6 f53e 8d5d 123f
00000040: f6ad d83e 70ec 193f 9a62 1e3f c21b 523f
00000050: 7c64 ef3e 5446 103f c3cf da3e 6206 b43e
00000060: baaf 223f 8dd0 8a3e 917c 093f 91f6 2c3f
00000070: 9559 cc3e 7b0c 083f b41c 2a3f 0264 f13e

model.1.bias f4 [32]
0.058705725 0.05643092 -0.03162619 -0.03501157 -0.28132454 0.033417348 0.0476757 0.3572401
0.012845086 -0.0789876 0.26876596 0.056322977 0.32907823 0.085917965 -0.035718657 -0.029062908
0.06712409 -0.083954506 -0.042475685 0.17755815 0.01023566 0.012647657 -0.03276893 0.089321114
0.05474363 0.023276608 0.0798567 -0.33174884 0.005992905 -0.031378523 0.08545252 0.1531104
00000000: 6a75 703d 1c24 673d 778a 01bd 4b68 0fbd
00000010: c509 90be a1e0 083d 9847 433d 2de8 b63e
00000020: 3274 523c 40c4 a1bd b19b 893e ecb2 663d
00000030: f17c a83e c2f5 af3d ba4d 12bd 5615 eebc
00000040: 5b78 893d 57f0 abbd fcfa 2dbd ced1 353e
00000050: 78b3 273c 1e38 4f3c b738 06bd fded b63d
00000060: db3a 603d 96ae be3c e98b a33d fcda a9be
00000070: 2160 c43b c486 00bd bb01 af3d f9c8 1c3e

model.1.running_mean f4 [32]
0.02983138 -0.010631494 0.024555786 -0.012700738 -0.022683544 0.011273953 0.012468062 -0.008110259
-0.04192133 -0.11060023 0.017409893 -0.019737747 0.05564058 -0.009099573 -0.00043970483 0.039437756
-0.008676614 0.019586628 -0.008617302 0.08300823 0.06739444 0.030047577 -0.08663513 0.029321225
0.032683905 -0.023024397 -0.014214255 0.07232428 -0.04541456 -0.009245508 -0.08668761 -0.012744578
00000000: f060 f43c b82f 2ebc 3729 c93c c216 50bc
00000010: d7d2 b9bc 63b6 383c d846 4c3c e4e0 04bc
00000020: b3b5 2bbd 6082 e2bd 319f 8e3c 0eb1 a1bc
00000030: 60e7 633d 6016 15bc 2f88 e6b9 7c89 213d
00000040: 5b28 0ebc 2374 a03c 962f 0dbc 3800 aa3d
00000050: 1906 8a3d 5626 f63c c26d b1bd 1133 f03c
00000060: 8fdf 053d a99d bcbc e8e2 68bc c11e 943d
00000070: 9e04 3abd 797a 17bc 4689 b1bd a2ce 50bc

model.1.running_var f4 [32]
0.016566213 0.0068641673 0.0076936223 0.0279049 0.026181232 0.030339843 0.025892496 0.04615994
0.02528621 0.015437558 0.064984284 0.034206208 0.036569085 0.009148319 0.013878013 0.020395026
0.0136992 0.026645958 0.020111464 0.045528896 0.024677178 0.026973668 0.007699383 0.011031778
0.02612166 0.0037529587 0.019431734 0.038642753 0.008629982 0.017723495 0.035255194 0.024706777
00000000: deb5 873c cfec e03b c81a fc3b d198 e43c
00000010: 067a d63c 438b f83c 801c d43c 3512 3d3d
00000020: 0725 cf3c d0ed 7c3c 7b16 853d cf1b 0c3d
00000030: 77c9 153d d5e2 153c 9b60 633c 7813 a73c
00000040: 9c72 603c a048 da3c ccc0 a43c 827c 3a3d
00000050: cb27 ca3c e2f7 dc3c 1b4b fc3b a1be 343c
00000060: 17fd d53c 33f4 753b 4d2f 9f3c dd47 1e3d
00000070: c564 0d3c dd30 913c c067 103d de65 ca3c

model.3.weight f4 [8, 32]
-0.03640708 0.027420687 -0.0052136234 -0.011342339 0.053696312 -0.037217595 0.045010284 0.037065927
-0.029612606 -0.006266271 0.09133267 0.034818023 0.0184798 -0.0047325995 0.021366155 0.10182397
0.06518608 -0.081175536 -0.0009800262 -0.035330463 0.014318371 0.019722015 -0.010856309 0.090309225
0.071785085 0.00414817 0.1228468 0.07285945 -0.005203823 0.09837412 0.061760776 -0.018503986
-0.117946886 -0.00234265 -0.040648 -0.14599301 -0.08590319 -0.1618939 -0.26147854 0.11898263
0.16350259 -0.0074681514 -0.11619042 -0.065689005 -0.11903572 0.015093371 -0.05768935 -0.008805842
-0.0023169972 -0.08770551 0.044542383 0.06135269 -0.08575283 0.13673007 0.0053380756 0.082305275
0.11328966 -0.009499212 0.015005649 -0.108064055 -0.05742399 0.03496449 -0.12685814 0.016603563
0.119976856 0.029443337 0.07014611 0.0031690032 -0.16090958 0.13999726 -0.02949059 -0.13837425
-0.18403009 -0.052460782 -0.2863059 -0.18737823 0.16242369 -0.015742049 0.06279819 -0.047844972
0.083797984 -0.043574985 -0.05515675 0.052395597 0.08061498 -0.13536927 0.023961218 0.047091298
0.016910676 0.0032641618 0.10221339 -0.058957756 0.062660985 0.04972166 -0.051932722 -0.1293662
-0.005775156 -0.047241546 0.011193091 -0.08288538 0.10006563 0.006991287 0.0987356 -0.056880187
0.0037094962 -0.05039039 -0.06814107 -0.033305 0.03535801 -0.034377225 -0.033728927 -0.030457169
0.008671671 -0.018023934 0.030064149 0.00910223 -0.031306315 -0.045166876 0.023966556 -0.026080944
0.051104635 -0.029139923 -0.02960167 -0.121563636 0.0119165145 -0.08094184 -0.044988267 -0.041701216
0.0071478356 0.023471642 0.012000342 -0.07414988 -0.06132422 0.09650608 -0.01656738 -0.09703081
0.0076716742 -0.08811316 -0.061671227 -0.057488874 -0.0056808344 -0.04402622 -0.052556578 -0.016835067
-0.08231373 0.0074541965 -0.006389227 -0.091850944 -0.054198474 0.00034964614 -0.092876345 0.03817256
-0.056314915 0.028880483 0.04806059 -0.0012730045 0.039882816 -0.03972877 -2.770355e-05 0.1376203
-0.013601947 -0.07836007 0.006528501 0.07214952 -0.053211 -0.10058536 0.024549944 -0.24039736
-0.03907752 0.013589317 0.14246215 0.082132876 -0.20042904 -0.09524533 -0.043628726 -0.02510401
0.002524553 0.055536125 0.08915848 0.11390178 0.07518842 0.04601147 -0.056366064 -0.017347371
-0.07052876 -0.004974502 -0.07658902 -0.037429597 -0.081053354 -0.038256228 -0.040212143 -0.078664176
0.007238172 -0.045756992 -0.0024080097 0.031190915 0.05102814 -0.03227531 0.025569273 -0.036050417
0.05830823 -0.009290318 -0.08454256 -0.034287896 0.0703217 0.024115244 0.0009883777 0.0031606108
-0.02928158 6.0959883e-05 0.0044973153 -0.03655564 -0.0148167275 0.02940382 0.026328655 0.043567494
0.099356174 -0.02881725 0.055588864 -0.0783686 -0.008261456 -0.005882367 -0.10107747 -0.013801308
-0.026602542 0.070142046 0.006941508 -0.016889464 -0.031780675 -0.0058516776 0.0113169225 -0.086005226
0.022866938 0.08955661 0.029088162 0.024325728 -0.23271103 0.082770005 0.057254158 0.022440024
-0.08004352 -0.038765293 -0.10653342 -0.18163237 7.3524716e-06 -0.046405252 0.037012886 0.0028033997
-0.0874208 0.07190223 -0.05015229 -0.09006245 0.04251802 -0.07990606 0.10036839 0.14233772
00000000: 971f 15bd 59a1 e03c 0bd7 aabb 38d5 39bc
00000010: aaf0 5b3d 7a71 18bd b45c 383d 71d2 173d
00000020: 2396 f2bc 4b55 cdbb 9f0c bb3d 589d 0e3d
00000030: f362 973c ec13 9bbb 1308 af3c 1689 d03d
00000040: 4880 853d 5c3f a6bd 3974 80ba adb6 10bd
00000050: 9a97 6a3c 1090 a13c a9de 31bc 0bf4 b83d
00000060: 0f04 933d 5fed 873b 1a97 fb3d 5637 953d
00000070: d584 aabb 5f78 c93d def8 7c3d ac95 97bc
00000080: 238e f1bd 2587 19bb 847e 26bd 317f 15be
00000090: 03ee afbd 84c7 25be 84e0 85be 2aad f33d
000000a0: 396d 273e 65b7 f4bb 3ef5 edbd f587 86bd
000000b0: 00c9 f3bd 304a 773c ab4b 6cbd 6146 10bc
000000c0: c3d8 17bb f29e b3bd 1372 363d f54c 7b3d
000000d0: 2e9f afbd f802 0c3e 06eb ae3b ab8f a83d
000000e0: 6904 e83d 95a2 1bbc 41da 753c b050 ddbd
000000f0: 6b35 6bbd ed36 0f3d 1ae7 01be 3204 883c
00000100: 6db6 f53d 2733 f13c c4a8 8f3d 0daf 4f3b
00000110: 7bc5 24be 715b 0f3e 4096 f1bc fbb1 0dbe
00000120: 6272 3cbe 1ee1 56bd b096 92be 14e0 3fbe
00000130: 6552 263e 78f5 80bc 569c 803d 17f9 43bd
00000140: 479e ab3d af7b 32bd 0bec 61bd c49c 563d
00000150: 7719 a53d 3e9e 0abe 514a c43c cee2 403d
00000160: 4288 8a3c 8ceb 553b 4155 d13d b07d 71bd
00000170: 6754 803d f0a8 4b3d 68b7 54bd 9378 04be
00000180: 853d bdbb 5a80 41bd 3a63 373c cfbf a9bd
00000190: 36ef cc3d 2b17 e53b e435 ca3d 33fb 68bd
000001a0: 051b 733b 2766 4ebd 8c8d 8bbd d36a 08bd
000001b0: 90d3 103d 22cf 0cbd 5827 0abd 5081 f9bc
000001c0: a013 0e3c eea6 93bc 1749 f63c 8521 153c
000001d0: 0d3b 00bd e700 39bd 8355 c43c b4a7 d5bc
000001e0: 1853 513d d9b6 eebc 347f f2bc 5bf6 f8bd
000001f0: 7c3d 433c d6c4 a5bd 9e45 38bd e5ce 2abd
00000200: 6438 ea3b 9a47 c03c 159d 443c e4db 97bd
00000210: 1b2f 7bbd fba4 c53d 50b8 87bc 17b8 c6bd
00000220: ab62 fb3b ac74 b4bd f89a 7cbd 7479 6bbd
00000230: 4b26 babb d654 34bd 9145 57bd b2e9 89bc
00000240: 1a94 a8bd 5542 f43b b95c d1bb 591c bcbd
00000250: 38ff 5dbd b650 b739 f435 bebd d55a 1c3d
00000260: 78aa 66bd c396 ec3c 2edb 443d f1da a6ba
00000270: 2a5c 233d a2ba 22bd ec64 e8b7 56ec 0c3e
00000280: b3da 5ebc 3f7b a0bd 09ed d53b 21c3 933d
00000290: c7f3 59bd b2ff cdbd f71c c93c ba2a 76be
000002a0: c00f 20bd baa5 5e3c 99e1 113e 4835 a83d
000002b0: 453d 4dbe fc0f c3bd 09b4 32bd eda6 cdbc
000002c0: f972 253b d979 633d b998 b63d 5645 e93d
000002d0: 63fc 993d 8676 3c3d 1ae0 66bd 131c 8ebc
000002e0: 6271 90bd 2601 a3bb b4da 9cbd c74f 19bd
000002f0: 4dff a5bd 90b2 1cbd 7db5 24bd af1a a1bd
00000300: 302e ed3b af6b 3bbd b3cf 1dbb 1784 ff3c
00000310: e202 513d 1e33 04bd a776 d13c 9aa9 13bd
00000320: 9cd4 6e3d 6b36 18bc a624 adbd 7771 0cbd
00000330: d304 903d 558d c53c 748c 813a 4022 4f3b
00000340: eddf efbc 2daf 7f38 375e 933b 5ebb 15bd
00000350: dcc1 72bc 48e0 f03c 31af d73c d473 323d
00000360: 407b cb3d 2712 ecbc 26b1 633d b77f a0bd
00000370: 0f5b 07bc dfc0 c0bb b401 cfbd e21e 62bc
00000380: 93ed d9bc a2a6 8f3d 9775 e33b c65b 8abc
00000390: 742c 02bd 6ebf bfbb 9d6a 393c 8223 b0bd
000003a0: 7253 bb3c 7569 b73d 4c4a ee3c c046 c73c
000003b0: cd4b 6ebe 5283 a93d 5683 6a3d 24d4 b73c
000003c0: dbed a3bd 5bc8 1ebd 322e dabd d6fd 39be
000003d0: 40b5 f636 6f13 3ebd d39a 173d 3eb9 373b
000003e0: ad09 b3bd 7a41 933d 7d6c 4dbd a972 b8bd
000003f0: 6027 2e3d caa5 a3bd f18d cd3d fbc0 113e

model.3.bias f4 [8]
3.7336458e-06 -4.1751173e-07 -3.5945088e-06 1.6675173e-06 -1.7033119e-07 5.551151e-07 -4.580334e-07 1.0565419e-06
00000000: 8c8f 7a36 6026 e0b4 3139 71b6 75cf df35
00000010: 48e4 36b4 3803 1535 a2e7 f5b4 81ce 8d35

model.4.weight f4 [8]
0.56586725 1.2529418 1.2797517 0.5520772 0.64912105 1.3461818 0.6728931 1.265267
00000000: addc 103f 6660 a03f e7ce a33f ee54 0d3f
00000010: cc2c 263f af4f ac3f b942 2c3f 45f4 a13f

model.4.bias f4 [8]
-0.13696963 0.47972152 0.5716976 0.026242677 0.08265519 0.52492803 0.035097014 0.5028592
00000000: c441 0cbe 0f9e f53e c65a 123f e2fa d63c
00000010: 2047 a93d af61 063f e3c1 0f3d 61bb 003f

model.4.running_mean f4 [8]
0.20921047 -0.20435323 -0.21756655 -0.12853576 -0.16647312 -0.20609523 -0.020460766 -0.20565893
00000000: 453b 563e f941 51be c4c9 5ebe e19e 03be
00000010: ee77 2abe a10a 53be 569d a7bc 4198 52be

model.4.running_var f4 [8]
0.004846421 0.10679244 0.23642278 0.0038788286 0.020188427 0.12775332 0.00758104 0.15091464
00000000: bace 9e3b ffb5 da3d d018 723e f233 7e3b
00000010: 3362 a53c c4d1 023e 5f6a f83b 5e89 1a3e

model.6.weight f4 [1, 8]
-0.25044474 0.5441647 0.71425843 0.13185202 0.13620603 0.60054296 0.13646647 0.52288705
00000000: 4b3a 80be 614e 0b3f a4d9 363f 3704 073e
00000010: 9879 0b3e 2fbd 193f debd 0b3e eddb 053f
