project/models/dqn.forwardPenalized.pt (torch_old, 8287 bytes, 13 tensors)

model.0.weight f4 [32, 32]
00000000: b4f1 a6ba 8203 5b3d ae11 d7bb 371f a83d
00000010: f06f 8c3b 36c8 a93b 722c b2bc 5fb1 a5bc
00000020: fecc 6dbc 14de 273a 3396 b5bc 312b a7bc
00000030: c30c 743c 7a56 133d 0b3c 96bc 709b 91bd
00000040: 3f82 acbc 0025 4a3d abe4 a8bc e312 e7bc
00000050: 4f90 0a3c cdf3 b5bc da65 18bb 6151 0c3e
00000060: 9bd7 c13b 31cf 14bd d20d b33c 221b 2e3d
00000070: 9ff5 c1bc 7c9a dd3d ab7f 74bd 80a7 8a3c
00000080: 9dec 72bd 5246 d23d cbfa 07bd f84e babc
00000090: 6ebd 0d3e 6ca1 a83c e041 38bd ffc1 143d
000000a0: dc97 4cbc 6bc2 ccbc 3331 39bc 6b13 3cbc
000000b0: 9168 2e3d 1501 083d 4fde 003d ee9f ea3c
000000c0: 2a37 513d 1bea ab3d b317 213c ae4d 773c
000000d0: bbd1 b63c a64b 5dbb 0765 b8bc 3a7e 64bc
000000e0: 5b62 d93b 70f0 52bd f603 32bc ee7f 2c3d
000000f0: c809 2bbd 4a71 a4bc 3018 ef3c 4e41 83bd
00000100: 04ea 22bd 3d03 f23d caf2 12bd af5f 963c
00000110: 99da d1bd 9a13 8cbc 449c d2ba 5d48 d2ba
00000120: 0cd4 6e3c f964 083d 5f2c b13d a47c c7bc
00000130: 3fd8 f1bc 8218 6dbc 64d9 603d a23a 84bd
00000140: af37 9a3c 8171 083e 4a38 2bbd 6f83 33bd
00000150: 25b6 0dbd 8fc5 bc3b ef96 843c 70be 74bd
00000160: 8da1 8bbb 018e c0bb 6f03 a2bc 84aa 6dbc
00000170: 0a0d ce3c 83b3 50bd a294 fbbd f946 dcbc
00000180: eb2c 29bd a2c9 08be 8b15 383d cd34 5dbd
00000190: 849e f4bd 5435 6fbc 0df2 983c 759c 01be
000001a0: 3320 9abc a66c 093d 3ad7 61bc ea9e 773d
000001b0: c9e0 62bc 391b 48bc d6da 8abd 001b ab3d
000001c0: 95d7 3d3d f4a4 96bd 9fa2 823a 3d52 adba
000001d0: 5174 b43d 2b59 a3bc faf6 5f3a 082b 713d
000001e0: 9b95 11bc e2d5 7f3d 2082 5e3c 2b89 b13c
000001f0: e108 503d 9206 c33c 3036 b43c 8df4 a33c
00000200: d81b 4ebb 4e3a 9cbd 37b1 1d3d e1ee a4ba
00000210: fbd3 063d 7a68 a03c ca16 53bd 2323 f1bc
00000220: 2be4 28bd b030 b83a 7baa bfbd 9bb9 af3c
00000230: 38cc bcbc 203a d8bc 0410 4b3b 920d 973d
00000240: ce8a 8dbd 14b2 eb3c 8a9d 36bc 1cf0 06ba
00000250: 39f7 943d 9027 13bc 7a6a f5ba dc04 3dbc
00000260: 29e9 8a3c 8e7c 5dbc ca60 253c c50a da3b
00000270: d152 96bd 34c0 723d 1132 513e 6df4 13bc
00000280: d0de fcbc c7a5 18be 7aba 11bd 5b70 1d3d
00000290: ec58 873a b58b 583c 9430 0f3d 20ba 63bd
000002a0: 6027 a03c 1d45 d7bc 6d81 79bd d3a3 1ebd
000002b0: 1fe1 cb3c ceb6 98bb de60 99bc d65a b73d
000002c0: 24fb 4f3d 1c4a 94bd 0da3 f4ba b5ee 513d
000002d0: 53ee f1bc 7362 1b3b 202a 7cbc 1147 093d
000002e0: fbde cbbb 40fa 0ebc 832b 6ebc 78fe 85bc
000002f0: f712 823d 6ad4 fcbd 4499 92bd a3ab 75bd
00000300: a350 b43d 0a23 013e d6c4 50bd 9bf0 a7bc
00000310: 5f54 00be 888b 4cbc 8e07 9a3d f877 223d
00000320: 8ca8 6bbc f486 93bc cdae ba3d 415f 4d3c
00000330: af78 eabb d949 2abb 7b75 133e c28f 9fbd
00000340: 631c 9d3c a4f5 073e a699 d83b 3957 1abb
00000350: 376f 1ebd c2e4 473a d271 34bd be2f 853d
00000360: 3add 4b3c 1c5e 0bbd 34e9 c53b c41b 7e3b
00000370: 4648 453d 42aa 06bc 3161 1fbe d5be a0bc
00000380: 876e 38bd f835 1ebe c5e5 98bc 0aa7 e43b
00000390: 4f65 69bd 9dc1 86bc b5d9 c1bc 756d cfbd
000003a0: 52a7 bc3c 7b47 43ba e560 9fbc 35e4 94bc
000003b0: 9418 073b 7c6a b0bb a37e e0bc 9a8b 8ebc
000003c0: 4f02 ddbc 2817 fbbd 97b3 afbc 76d7 8c3d
000003d0: c2d5 49bd 0f64 30bb 1db6 503d ff7e d9bd
000003e0: bb86 693c 00ac 5c3c 8ac0 a9bc c0dc da3c
000003f0: af24 a6bc ab4e 233d a83a 183d 5e6b 82bd
-0.0012736828 0.053470142 -0.006563387 0.08209079 0.004285805 0.0051813377 -0.021749709 -0.020226179
-0.014514206 0.00064036367 -0.022166347 -0.020406337 0.014895621 0.035971142 -0.018339178 -0.071097255
-0.0210582 0.049351692 -0.02061685 -0.028207248 0.008457257 -0.02221098 -0.0023254068 0.13702919
0.0059155948 -0.036330406 0.021857176 0.042506345 -0.023676692 0.10820481 -0.059692066 0.016925573
-0.059307683 0.10267319 -0.03319816 -0.022742733 0.13841793 0.020584784 -0.0449847 0.03631782
-0.012487378 -0.02499505 -0.011303234 -0.011479239 0.04258019 0.033204157 0.03146201 0.028640714
0.051078 0.083942614 0.0098323105 0.015094204 0.022316804 -0.0033767014 -0.022509111 -0.01394611
0.0066340393 -0.05149883 -0.010865202 0.04211419 -0.041757375 -0.020073552 0.029186338 -0.0640894
-0.039773956 0.11817024 -0.035876073 0.018356172 -0.10246772 -0.01709919 -0.0016068299 -0.0016043294
0.014576923 0.03329942 0.08651041 -0.024351425 -0.02952206 -0.014471175 0.05489482 -0.06456496
0.01882538 0.13324548 -0.04180173 -0.043826517 -0.034597535 0.0057608555 0.016185252 -0.059751928
-0.0042612017 -0.005876303 -0.019777028 -0.014505986 0.025152702 -0.050952446 -0.12284209 -0.026889311
-0.041302603 -0.13358167 0.04494242 -0.054005433 -0.11944297 -0.014600117 0.018670106 -0.1265734
-0.018814182 0.03355088 -0.013784224 0.060454287 -0.013847538 -0.012213522 -0.06780021 0.08354759
0.046348173 -0.07355681 0.0009966678 -0.0013223361 0.08811248 -0.01993998 0.0008543577 0.05887893
-0.008885766 0.062459834 0.013580829 0.021671852 0.050789718 0.023806844 0.021998495 0.020014072
-0.0031449702 -0.07628308 0.038499083 -0.0012583398 0.032917004 0.019581068 -0.051535405 -0.0294357
-0.041233223 0.0014052596 -0.093586884 0.021450808 -0.023046598 -0.026394904 0.0030984888 0.07375635
-0.069112405 0.028771438 -0.011145959 -0.00051474734 0.072737165 -0.0089816 -0.0018723749 -0.011536803
0.016956883 -0.013518466 0.010093877 0.006654116 -0.07340015 0.05926533 0.20429255 -0.009030444
-0.030867964 -0.14906989 -0.03557823 0.03843723 0.0010326183 0.0132169025 0.034958437 -0.055597425
0.019550025 -0.026278073 -0.060914446 -0.038730454 0.02488762 -0.004660464 -0.018722948 0.089528725
0.050776616 -0.07240698 -0.0018664316 0.05125304 -0.029532587 0.0023709803 -0.015390903 0.03351504
-0.0062216497 -0.008726656 -0.014536741 -0.016356692 0.063512735 -0.12345202 -0.07158139 -0.05997814
0.08804443 0.12611023 -0.050968967 -0.020500472 -0.12532185 -0.012484439 0.07520972 0.039665192
-0.014383446 -0.018008687 0.09115372 0.012534917 -0.0071555 -0.0025983958 0.14400284 -0.077910915
0.019178575 0.13277298 0.006610113 -0.0023550524 -0.03868028 0.0007625335 -0.04405386 0.06503247
0.012442881 -0.034025297 0.006039763 0.0038773874 0.04816463 -0.008219304 -0.1556442 -0.019622246
-0.045027282 -0.15450275 -0.01866425 0.0069779204 -0.05698138 -0.016449744 -0.023663381 -0.10128299
0.023029003 -0.0007449311 -0.019455383 -0.018175224 0.0020614015 -0.0053837877 -0.027404135 -0.017400552
-0.02697864 -0.12260276 -0.02144794 0.068770334 -0.04927612 -0.0026915108 0.050954927 -0.10619926
0.014253314 0.013468742 -0.020721693 0.02671659 -0.020281164 0.039869945 0.037165314 -0.06368135

model.0.bias f4 [32]
00000000: 2b12 e033 a4ff 4fb4 90af 99b3 0972 a034
00000010: 1433 db33 50ef 43b1 d468 de34 a7a6 9234
00000020: f369 b6b3 40ea 1e30 2591 2435 e55c 11b4
00000030: c22d f134 b227 8033 7820 4f34 a858 8434
00000040: c43f 9334 f29b 5f33 8e8e 4a33 5aa5 8eb4
00000050: 081c 1cb5 c93f 8ab3 129b a434 3266 05b5
00000060: 4076 bd32 2327 e734 8d67 c834 9084 0d34
00000070: 0f80 a8b4 366b 9a33 6cc7 8233 e75f e334
1.04341176e-07 -1.9371379e-07 -7.156552e-08 2.9885294e-07 1.0207273e-07 -2.8512268e-09 4.1426995e-07 2.7315875e-07
-8.4943075e-08 5.7812954e-10 6.1305974e-07 -1.3537972e-07 4.492304e-07 5.967685e-08 1.929019e-07 2.4651422e-07
2.742728e-07 5.2063065e-08 4.7161443e-08 -2.656987e-07 -5.815532e-07 -6.437728e-08 3.066021e-07 -4.9695075e-07
2.205627e-08 4.305558e-07 3.7328246e-07 1.3179874e-07 -3.1385613e-07 7.1906854e-08 6.0898714e-08 4.2351823e-07

model.1.weight f4 [32]
00000000: 0bbd f43e f8a0 0e3f ccd0 073f 2669 133f
00000010: 41ad 093f c526 dc3e b2fa 373f d65a 1d3f
00000020: 62c6 c23e 927e c23e baca 223f 0ac2 1a3f
00000030: f5d8 0a3f 2af6 143f 407b d63e ce18 003f
00000040: d337 083f ad67 d53e 5822 983e c0f1 fd3e
00000050: 78bb 2f3f 9059 2e3f 599a 1e3f 8128 ea3e
00000060: 6b73 013f f15e 093f 605a 253f 780b 0a3f
00000070: 9079 c93e 13cb e03e cff5 d33e 542e 253f
0.47800478 0.5571437 0.53052974 0.5758232 0.5377999 0.4299833 0.71866906 0.6146673
0.3804198 0.3798719 0.63590586 0.6045233 0.542373 0.58188117 0.41890907 0.5003785
0.5321018 0.4168066 0.29713702 0.49598503 0.6864543 0.6810541 0.61954266 0.45734027
0.5056674 0.53660494 0.64591026 0.5392375 0.39350557 0.43904933 0.41398475 0.64523816

model.1.bias f4 [32]
00000000: 04eb 85bc 1e49 1d3d 684c dbbc d112 7d3d
00000010: 5df8 1abd 0115 fc3c 3139 763d cda2 e13c
00000020: fba0 dc3c bd85 3abb 9f42 a63d a9b2 8bbd
00000030: 1212 603d 045f 1e3c 6226 81bc 49ba ef3c
00000040: 0a76 263d 12a8 99bc a67f e6bc 7ca9 ae3d
00000050: dea8 9a3c 2d87 783d daa8 583d 596b dcbb
00000060: c71f 913d 0af5 223d d9af 283e a0cd 163c
00000070: d705 943d ee72 27bd 3348 063b 0c2d c3bd
-0.016347416 0.038399808 -0.026769832 0.061785523 -0.037834514 0.030771734 0.060113136 0.02754345
0.02693223 -0.0028461062 0.08118176 -0.06821186 0.054704733 0.009666208 -0.015765373 0.029263632
0.040639915 -0.0187569 -0.02813704 0.0852842 0.01887935 0.06067579 0.052895404 -0.006726664
0.07086139 0.03978447 0.1647333 0.009204298 0.07227676 -0.04088109 0.0020489811 -0.095300764

model.1.running_mean f4 [32]
00000000: 0adf 613d 56e4 763c 37af 6dbb 05d8 e63c
00000010: 53e1 403d 7eb1 dcbd 02ff 083d 8e2f a0bd
00000020: de01 fe3d 3262 a5bc f450 8a3d c9c5 87bd
00000030: 723f 21bd 36be 143d 22ce 473d d90b bb3d
00000040: 2251 19be aaee 9539 0b29 debc 5c2c 52bd
00000050: 3954 8bbc af79 20bd 8ce9 bc3d 1eb6 2fbc
00000060: 712b 943c 12ed b13d 7fc6 eb3d e8e9 61bc
00000070: 735c 5a3c ac52 07bc 9823 77bd 4c44 dfbd
0.055144347 0.015069088 -0.0036267766 0.028179178 0.047089886 -0.107760414 0.03344632 -0.0782157
0.124027 -0.020188425 0.06753722 -0.066295214 -0.039367147 0.03631421 0.048780568 0.09133119
-0.14972356 0.00028597313 -0.02711918 -0.051311836 -0.017007934 -0.039178547 0.09224233 -0.010724572
0.01808712 0.08687796 0.115124695 -0.013788678 0.013327706 -0.008259457 -0.06033668 -0.109016985

model.1.running_var f4 [32]
00000000: c527 743c 2190 063d 8790 ce3c d237 033d
00000010: 4c7a db3c 5e3d c53c 920a 123d 8383 343d
00000020: adc9 883c bb80 853c 9991 163d 2956 5a3d
00000030: b481 b53c 6008 d63c 3018 d33c f91a 073d
00000040: 875e b83c 3229 653c d5d5 b63b 027d 1d3d
00000050: bbbe 543d 5e22 1a3d 4b3a 233d 780f 983c
00000060: e8fa cf3c 2da5 de3c 213e 973d 513f e63c
00000070: 58b1 d83c 7d0e af3c 1843 763c 7ff6 2c3d
0.01490206 0.032852296 0.0252154 0.032035656 0.026791714 0.024077114 0.035654612 0.04407073
0.016697729 0.016296735 0.036759946 0.053304825 0.022156574 0.02612704 0.02576837 0.032984708
0.022506012 0.0139868725 0.00557969 0.038449295 0.051939707 0.03763043 0.039850514 0.018562064
0.025388196 0.027178371 0.07384897 0.028106363 0.026451752 0.021369213 0.015030645 0.042227264

model.3.weight f4 [8, 32]
00000000: f99e ba3d d983 c2bd a52b 983d fc3c f6bd
00000010: e335 36be c14c f53d 6204 443e 7385 5dbe
00000020: 7853 5a3d 11ff b23c 73ff 5dbd a1fb 32bb
00000030: bacd ff3d 6aac 7bbd f4dd 0dbd c0a5 383d
00000040: 8654 273d 2dce ffbc 7707 813c 9a5a 55bd
00000050: 3baf 12bd 9b0e 8fbe d5b5 ff3d 9113 b0bd
00000060: aff5 833d 3175 ddbd b2e4 d1bd 98f5 9dbc
00000070: 98ec 3abd 8b5f c83d 0319 98bd 94aa bdbd
00000080: bc40 e3bc b44e d1bd f743 98bd fd90 a73d
00000090: 3c20 45bc efe2 5bbc 4eab 0fbe 24b6 973d
000000a0: 33e5 b9bd 55ff 633d 4e7c 09be 0bfd b1bd
000000b0: 0f43 b4bd b5ea e33c 61ac b33b 83ad c2bc
000000c0: 8f58 193d 2c42 44bd 7b11 e83b 3cd6 863d
000000d0: e432 15b9 e2ee 0fb8 44d3 e5bd af3c 143d
000000e0: fc17 7f3d 7ff9 153d e142 7ebe ec5f d1bd
000000f0: b772 afbd fa47 4c3d 9bda 7e3c e1bd 04bc
00000100: cdb6 a03d deeb e2bc b65c 9dbd d298 9dbc
00000110: 5635 e8bd db73 813d 6c37 d33c f298 12be
00000120: 40ea ebbb 6d73 843d 1f62 4ebd f5c2 013d
00000130: 04d5 b83c 3bc4 68bd b4d7 d23c fdf9 9c3c
00000140: 3cde b03d f0b8 2cbd d396 8f3c 6e3f 0bbe
00000150: 3944 943d fb89 3cbe 3acd 0b3e f97c 863c
00000160: 3bb3 56bc 5ff2 e0bd 1c4f 133c 3f17 153d
00000170: 5aea 02be 5120 a23d da25 6bbd 0bdf febd
00000180: 42c7 87bc 239e d73d dc88 0cbc e603 e1bd
00000190: bab0 a03d 9ade 0cbb 1bfe 9f3d ad6d 2dbd
000001a0: 8335 aa3c 7f5f ebbd ef8f c83d caf0 153e
000001b0: a559 3f3d 6019 033e 649f 293d 9112 62bb
000001c0: 0fea 2dbe b4e9 c2bd 6d9c 37bd 1485 a03d
000001d0: 7691 fe3d a068 54bd 682f bfbc cbcf dabd
000001e0: 13c8 ce3c 86fc a43d 0938 aebd 0453 f53d
000001f0: 11cb 053d 85aa 933d 5ee1 ed3d 62f5 56be
00000200: 6485 283e 8e49 683d 7f33 a4bd c4e5 9bbc
00000210: 18c4 b53d 41ad 56bd f860 d3bc ea90 98bd
00000220: 1f56 babc 70fe 133d 4583 923c f1ed 85bc
00000230: 1007 f73d 32c7 983c f932 d83d 1c89 47bd
00000240: bca2 4fbd 7750 fa3c 3eb5 93ba 2f5c 1ebe
00000250: f9a5 14bd 56e6 2b3e e6b3 143e aa6b 833d
00000260: 6f78 e7bd 0535 523d ccb0 dc3d 903b 9c3d
00000270: acfd f3bd e644 823c 004d 87bd 01cd c2bd
00000280: 5245 d2bc f5c2 cf3d bfa5 c83c ed53 df3d
00000290: 9927 1cbd 857a 90bc b7ef 113d e94f fd3d
000002a0: 1d2e a23d fdbd 0a3c 4a42 0c3e 9548 bb3c
000002b0: d827 0c3e b347 b4bc 2c23 e83c c0e3 51bd
000002c0: 2056 19bc e5a7 a8bd becd b93d 5af2 673d
000002d0: cd25 ef3d 360f 013d 9d82 45bb b2e0 fc3b
000002e0: dcb3 cb3d b622 5a3d 2533 2e3e 8c2b d4bc
000002f0: 535d 223d a9c3 383d e724 863c cbde c63d
00000300: f62b 8a3c ec80 4a3d c75a 50bd e8b8 adbc
00000310: a101 a9bd ba57 bcbc 9b68 b7bd 737f b33c
00000320: 277d a53d f8df 9eb7 6582 12be 676e 493d
00000330: 4482 4dbd 338b 58bc 7a3b 993d 630b d2bd
00000340: 5125 b9bd a333 d838 3223 16bd ab73 823b
00000350: 2d70 41ba cab3 c53d 82b0 813d 256d a0bc
00000360: 9dce ab3c 7f32 383d b3e9 31bc 7abf 29bd
00000370: 6a1a 08bd 24ef efbd 7c92 b0bd fd16 2ebe
00000380: 59a2 3a3d a256 1d3e f9c6 0dbe 4a73 15bd
00000390: 8e2c e83d e060 86bd 81d2 03be 6faf bbbd
000003a0: 6a22 dabc d1fc 3bbd 59a5 143e 9c61 4dbe
000003b0: adf1 a03c fce9 acbc 4065 983d 05a5 ab3d
000003c0: 3f7b e9bd d928 03bd 984b d13b b66e f6bd
000003d0: ece2 79be a3a7 2a3c bdd4 b13d d1ad c33d
000003e0: d159 e9bd ccd0 be3d dcae a23d ed31 043e
000003f0: e69c 21bd 562b 803d 07de 963d c86e ff3a
0.09112353 -0.09497804 0.074301995 -0.120233506 -0.17793994 0.1197753 0.19142297 -0.21632938
0.05330226 0.02185014 -0.054198693 -0.0027310627 0.12490411 -0.061443724 -0.0346355 0.045079947
0.040852092 -0.031226242 0.01575063 -0.052088358 -0.035811644 -0.2794083 0.124858536 -0.08597482
0.06443345 -0.10813368 -0.10248698 -0.019282147 -0.04563579 0.097838484 -0.074266456 -0.09261051
-0.027740829 -0.102200896 -0.07434838 0.08181951 -0.012031611 -0.013420804 -0.14030191 0.074077874
-0.090769194 0.055663425 -0.13426325 -0.08690842 -0.08801853 0.027821878 0.0054831957 -0.023764377
0.03743797 -0.04791467 0.007082162 0.06583831 -0.00014228706 -3.4316334e-05 -0.11221936 0.036190685
0.062278733 0.03661489 -0.248302 -0.10223374 -0.08566802 0.04987333 0.015555049 -0.008101911
0.078473665 -0.02770036 -0.07683699 -0.01923791 -0.11338298 0.06320926 0.025783263 -0.14316157
-0.0071995556 0.06467328 -0.050386544 0.031680066 0.022562511 -0.056827765 0.02573762 0.019162172
0.08636138 -0.042168558 0.017527973 -0.13598415 0.07239575 -0.1841201 0.13652506 0.016417013
-0.013104255 -0.109837286 0.008991029 0.036399122 -0.1278471 0.0791632 -0.057409145 -0.12444886
-0.016574506 0.10528209 -0.008577552 -0.10987072 0.07846208 -0.0021494986 0.07812139 -0.042340923
0.02077747 -0.11492824 0.09793078 0.14642635 0.04671635 0.12802649 0.041411772 -0.003449593
-0.16983818 -0.095172316 -0.044826914 0.07837883 0.12430088 -0.05185759 -0.023338035 -0.106841646
0.025241887 0.080559775 -0.085067816 0.119787246 0.032664362 0.072102584 0.11615251 -0.20992044
0.16457134 0.056710772 -0.080176346 -0.01903046 0.088752925 -0.05241132 -0.025803074 -0.07449515
-0.022746144 0.036131322 0.01788486 -0.01634881 0.12061894 0.018649671 0.10556597 -0.048714742
-0.050692305 0.030555947 -0.0011269224 -0.15464853 -0.036291096 0.16787085 0.14521751 0.0641702
-0.11302268 0.051320095 0.10775909 0.07628548 -0.119136184 0.015901994 -0.066064835 -0.09511758
-0.02566782 0.10144607 0.024493096 0.109046794 -0.0381237 -0.017636547 0.035629 0.12368757
0.07918952 0.008468148 0.13697162 0.022861758 0.13687074 -0.022006845 0.028337084 -0.05124259
-0.009358913 -0.08235148 0.09072445 0.05662761 0.11677132 0.031508647 -0.0030137666 0.0077172155
0.09946415 0.05325576 0.17011698 -0.025899671 0.039639782 0.04510847 0.016375018 0.09710463
0.016866665 0.049439356 -0.050867822 -0.021206334 -0.08252264 -0.02299105 -0.08955499 0.021911358
0.080805115 -1.8939361e-05 -0.14307554 0.049177554 -0.05017306 -0.013216781 0.074820474 -0.10256078
-0.09040321 0.00010309301 -0.03665466 0.003981074 -0.0007379081 0.09653433 0.06332494 -0.019583294
0.020972544 0.04497003 -0.010858941 -0.041442372 -0.033228315 -0.11715534 -0.0862169 -0.17000957
0.045564983 0.15365079 -0.13845433 -0.0364869 0.11336623 -0.06561446 -0.1287327 -0.09164321
-0.026627738 -0.0458954 0.145162 -0.20056766 0.01964649 -0.021107666 0.07441187 0.08381084
-0.114004605 -0.032021377 0.0063871853 -0.12032835 -0.2440297 0.010415944 0.08683155 0.09554637
-0.11394084 0.093171686 0.07943508 0.1290967 -0.03945627 0.06258266 0.07366567 0.0019487971

model.3.bias f4 [8]
00000000: 73b5 86b5 a68a bbb6 9d1c 14b5 cc14 24b3
00000010: 2b79 f134 dc4d 2f36 9597 e834 0eb0 d2b5
-1.0036587e-06 -5.589175e-06 -5.5175934e-07 -3.820314e-08 4.497791e-07 2.6122352e-06 4.3323658e-07 -1.5697458e-06

model.4.weight f4 [8]
00000000: b8f1 8c3f 7db2 903f 8351 553f 284b 503f
00000010: b329 543f da4d 4b3f 6db5 5c3f 4e6c 903f
1.1011267 1.130447 0.833275 0.8136468 0.8287613 0.7941567 0.86214334 1.1283052

model.4.bias f4 [8]
00000000: 5be6 393e 228f 3a3e 1b63 06be 1b30 1fbe
00000010: 7000 27be 1dc5 0cbe c35c 023d c542 4d3e
0.1815428 0.18218663 -0.13123743 -0.15545695 -0.1630876 -0.13747068 0.031826746 0.20045002

model.4.running_mean f4 [8]
00000000: a3bf 33be 8532 7fbe 752d 05be 62b7 c63d
00000010: 4811 9f3d c1a6 b83e 088b 14be b3fb 6bbd
-0.17553572 -0.24921615 -0.13005622 0.09702946 0.07766968 0.36064723 -0.14506161 -0.057613086

model.4.running_var f4 [8]
00000000: 2949 1f3e 2d58 f93d 23bc 2f3d 211a 213d
00000010: b928 b33d 8849 873c c596 683c 0dcd 633e
0.15555252 0.12175021 0.04290403 0.03933156 0.087480016 0.016514555 0.0141961025 0.2224619

model.6.weight f4 [1, 8]
00000000: 452c 9b3e 6ac8 9e3e 9ba8 09be 3820 15be
00000010: 6ce8 37be 1cd2 81bd 156f 983d 08ab dd3e
0.30307212 0.3101228 -0.13443224 -0.14563072 -0.17959756 -0.06338903 0.07443062 0.4329455
